…
       x = self.pool(nn.functional.relu(self.conv2(x)))\n        x = nn.functional.relu(self.conv3(x))\n        x = self.flat(x)\n        x = nn.functional.relu(self.fc1(x))\n        x = self.fc2(x)\n        return x\n\nnet = LeNet()\n\nsummary(net,input_size=(1,3,32,32))\n</code></pre> <pre><code>==========================================================================================\nLayer (type:depth-idx)                   Output Shape              Param #\n==========================================================================================\nLeNet                                    [1, 2]                    --\n\u251c\u2500Conv2d: 1-1                            [1, 6, 28, 28]            456\n\u251c\u2500MaxPool2d: 1-2                         [1, 6, 14, 14]            --\n\u251c\u2500Conv2d: 1-3                            [1, 16, 10, 10]           2,416\n\u251c\u2500MaxPool2d: 1-4                         [1, 16, 5, 5]             --\n\u251c\u2500Conv2d: 1-5                            [1, 120, 1, 1]            48,120\n\u251c\u2500Flatten: 1-6                           [1, 120]                  --\n\u251c\u2500Linear: 1-7                            [1, 64]                   7,744\n\u251c\u2500Linear: 1-8                            [1, 2]                    130\n==========================================================================================\nTotal params: 58,866\nTrainable params: 58,866\nNon-trainable params: 0\nTotal mult-adds (M): 0.66\n==========================================================================================\nInput size (MB): 0.01\nForward/backward pass size (MB): 0.05\nParams size (MB): 0.24\nEstimated Total Size (MB): 0
…
